model/model.pth (torch, 16799 bytes, 4 tensors)

linear1.weight f4 [256, 11]
00000000: 32fe 4e3e 8576 a73e a09b cb3e c5db 333e
00000010: 76ce b4be 7093 42be bdd0 683e a1ec 16be
00000020: 636a 0c3f ce43 ba3e 8646 82bd 2efd 5bbe
00000030: 1c8e e63c babe 123f 6376 5abe 6565 d4be
00000040: 3e06 723e e3bf 6b3d da39 2ebe 46c6 cfbe
00000050: 32f0 a83e dfaf 993e 0314 143e d1de 083f
00000060: ec41 1cbe 0322 46be 3568 a03e 38e8 993e
00000070: 4fa0 7cbe c29d 09bd 8ad9 ab3d d4e8 9dbd
00000080: 0e21 e8be d248 53be 3f5c 49bd f530 123e
00000090: c0c6 113e e53c abbe 3885 943c 6291 793e
000000a0: ba04 9fbd 5edb 2ebf e6ae 0f3e 32e8 e33c
000000b0: 5c90 d8be cb96 1f3f 8694 7bbe 7008 873e
000000c0: 4c5c babe 274c 503e da92 fc3d 477c 693c
000000d0: 3fd8 0dbf 5e1f 10be 036b f53c ce71 9b3e
000000e0: 7d1e 71be 0f2e bcbe 8db2 483e 4292 0b3e
000000f0: 7676 9a3e aa82 8ebd e737 cdbe 95a6 bfbd
00000100: 1efe e43d 85f8 9d3d a143 b43e 57b8 9bbe
00000110: 26e9 8e3d 8a64 103d 1c5f 63be 8db5 f33c
00000120: cf35 76bd 5ed5 983d 795a 473e da63 be3d
00000130: e03d 79be 825e 42be e001 913d cd54 babd
00000140: 527e 89be d689 f73e cc06 2b3e 7e09 0bbe
00000150: b08f 08bf 8e44 1b3e 45dd 5c3e c0c0 ccbe
00000160: 19c3 45be 03de 42bd 6dff 2d3e f9b6 843e
00000170: f6ae 373e 9ff7 33be 40d1 cdbe 846b e5be
00000180: 32a0 b3be d26a 143c b797 733e c0e7 dd3e
00000190: 3ad9 e03e 64f9 0fbf 5fc9 103e 38b9 81bd
000001a0: bf46 febd 9321 4b3e d84f ac3d b319 ac3e
000001b0: 5c2b b83e 2345 a43e d944 78bd 2462 b33e
000001c0: 3b5d 98be 3cf7 953e 2b18 993d 451c 98be
000001d0: dfb8 c33d 1efc a5be 8add 64bd 48a7 b33e
000001e0: 7ebb d0bb b791 8fbd 3acb f7bd 3d1a 33be
000001f0: 8673 be3e 7430 6fbe f818 af3e f95d 9bbe
00000200: 4720 d8bd ea9b 17bf ff78 9dbd c4bd 26bf
00000210: 5586 a63e e1bf 073e 7904 de3c 54ba b73c
00000220: 4fa6 7dbe d9ad edbd 6637 66bb 2aa3 88bd
00000230: 1fff af3e 7a60 1c3e 2ac9 eb3a 1d89 773d
00000240: eb34 b5be eb4d 913e 23d6 013e 29b8 a9bd
00000250: 9ab3 1abe 99c3 e5bd 776c 9f3c 83d9 abbd
00000260: 742c fa3d 751b 97bd 7be3 0dbf 4a59 cb3e
00000270: 4565 4e3e e0d2 2b3e 4e98 e23d 1213 02be
00000280: 0373 893d 825b fabc f4e9 043e 09a2 81be
00000290: 4b1c 963d 9ae6 b5bd a82e 8abe cd17 163e
000002a0: af17 c3be 86e2 59bd ed2f 7dbe ccdb aebd
000002b0: c64c d13d ddfe 92be 8f77 453e 8cab 64be
000002c0: 7cb2 003f ec90 73be 3ef9 86be 1bd0 843e
000002d0: a563 723e b52a 7fbe be61 03be 7bce bebe
000002e0: e566 eebe cbc4 2a3e 516b ac3d a60b a33e
000002f0: 0e0d fa3d a874 57be ceea c0bd 179d a63d
00000300: 8bce 22be cff0 aabe 1b44 fc3d 09f0 83be
00000310: e9eb 4b3e 82cc 9d3e ca61 1fbe 2e2f c23d
00000320: 2937 743e 085d 5bbe 52fb f1be fec7 1c3e
00000330: dd6d 873d fe5a 463e 8a60 d1be f1ca d0bd
00000340: 3614 b03d f7e0 223d 5641 0ebf 1a9f 0c3f
00000350: ac77 98bc dc84 593e 5b47 023d 4f53 1ebd
00000360: 6bbc 05bd 8d38 933b 3393 57be 924c 10be
00000370: 7813 d43d 2c67 abbe 1cbb 1dbe 7aef 883d
00000380: ca33 9fbe 77b8 203e 0270 8b3e 53da 90be
00000390: 380b f93e 595a 0e3e f0d0 6b3d 84e3 bb3e
000003a0: c32d 40bd b703 01bd 31e2 44bd 92dd 543e
000003b0: de55 4fbe 344c 023e bedb 9f3e 16d2 ccbe
000003c0: b847 c33e 4996 d93d d18a c93c 1ef5 a6bd
000003d0: e730 8bbc ad7c 283e 7b65 abbe 1fc7 e03e
000003e0: f272 8bbe 8f3f e6be 4a4c c2be eec1 b73e
000003f0: 8b6b d0be c62b 98bd 71b4 bc3e 5879 7dbe
0.20214155 0.3270761 0.3976717 0.17564304 -0.35313767 -0.19001555 0.22735877 -0.14738704
0.54849833 0.36379856 -0.063611075 -0.21483299 0.028143935 0.57322276 -0.21334223 -0.41483608
0.23635194 0.057556044 -0.17014256 -0.40580958 0.32995754 0.30016991 0.14460759 0.5346499
-0.15259522 -0.19348912 0.31329504 0.3005998 -0.24670528 -0.033597715 0.08391102 -0.07710424
-0.4533772 -0.20633247 -0.04916024 0.14276488 0.14235973 -0.33444896 0.01812993 0.24371865
-0.077645734 -0.6830348 0.14031562 0.02782068 -0.42297637 0.62339467 -0.24568376 0.26373625
-0.36398542 0.2034155 0.12332697 0.014250821 -0.5540809 -0.14074466 0.029958254 0.30360264
-0.23546787 -0.3675389 0.19599362 0.13630012 0.30168504 -0.06958516 -0.40081713 -0.09357945
0.111812815 0.07713417 0.35207847 -0.30414078 0.06978063 0.03525213 -0.2220425 0.029749656
-0.06010991 0.074625716 0.19468106 0.09296389 -0.2434001 -0.18981364 0.07080436 -0.09098206
-0.26854187 0.48347348 0.16701812 -0.1357784 -0.5334425 0.1516287 0.21568783 -0.39990807
-0.19312705 -0.047575008 0.16991968 0.25920847 0.17937836 -0.17574929 -0.40198708 -0.4480859
-0.35083157 0.009058671 0.23788343 0.43340874 0.4391573 -0.56239915 0.14139317 -0.06334156
-0.124158375 0.19837026 0.084136665 0.33613357 0.3597058 0.32083997 -0.060612533 0.35035813
-0.2975863 0.29290187 0.07475313 -0.29709068 0.09556746 -0.32418913 -0.05587534 0.35088563
-0.006370007 -0.07010215 -0.12099309 -0.17490478 0.37197512 -0.23358327 0.34198737 -0.30345133
-0.105530314 -0.5922228 -0.07689094 -0.6513331 0.32524362 0.1325679 0.027101742 0.022427715
-0.24770473 -0.116054244 -0.0035128235 -0.06671746 0.3437433 0.15271178 0.0017989029 0.060433496
-0.35391936 0.2837976 0.12679343 -0.08287079 -0.15107575 -0.11218948 0.0194609 -0.083910964
0.1221551 -0.07378284 -0.5542523 0.3971656 0.20155819 0.16779661 0.11064206 -0.12702587
0.0671139 -0.030561212 0.12979871 -0.25318936 0.07329615 -0.088818744 -0.2698872 0.14657517
-0.38104007 -0.053194545 -0.24725313 -0.08538017 0.102197215 -0.2871007 0.19283889 -0.22331065
0.50272346 -0.23785752 -0.26362032 0.25940022 0.23670824 -0.24918635 -0.12830254 -0.37266907
-0.46562877 0.16676633 0.084189065 0.31844825 0.12209521 -0.21040595 -0.094197854 0.08135431
-0.15899102 -0.33386847 0.123176776 -0.2576907 0.19914211 0.3082009 -0.15564647 0.09481655
0.23849167 -0.21422207 -0.47262055 0.15310666 0.06612752 0.19370648 -0.40893966 -0.10194958
0.08597605 0.039765324 -0.55568445 0.5493027 -0.018611751 0.21242088 0.03180633 -0.038653668
-0.032650393 0.0044928254 -0.21052246 -0.1409171 0.10355276 -0.3347715 -0.15403408 0.066863015
-0.310942 0.15695368 0.27233893 -0.28291568 0.48641372 0.13901652 0.057572305 0.36697018
-0.04691864 -0.031497683 -0.048067275 0.20787647 -0.202476 0.12724382 0.31222337 -0.40004033
0.38140655 0.10624368 0.024602326 -0.08152221 -0.016991092 0.1645381 -0.3347586 0.43901917
-0.27236134 -0.44970366 -0.3794883 0.35890144 -0.4070705 -0.07430224 0.36856416 -0.2475332

linear1.bias f4 [256]
00000000: 94c5 4abe 2ccd 4abd 9c3c 693e 921a 103f
00000010: 1c84 9a3e 9eca a63e ec3d 10be 3a50 fbbc
00000020: e110 143e 3b76 9ebe 6160 5fbd 6257 003f
00000030: 0338 e8bd db2c 28be 62a0 933d b9f1 66be
00000040: 92cd 3a3e 1d76 3abe 0bd5 8b3e fcfc d33e
00000050: 09a4 92be 9d70 45be 645a 39bd eb31 be3e
00000060: db32 23bd 879a 2bbd 61a1 d1be ffbb 9abd
00000070: 0d15 4fbe bcce 4f3e 8ee5 10be 0196 dc3d
00000080: bef9 06be 1394 4e3e 19a7 7abd 2b0b c03d
00000090: f420 a93e a384 bf3c 4ff1 0c3c d5e6 663e
000000a0: deca 89bd 078e 8fbd 151d 09be c41f 2b3f
000000b0: d614 3cbe 2080 b93d 75ed 0c3d 9f83 823c
000000c0: 7244 80be b03c 2cbe d05e 943d 99cd 3ebe
000000d0: 59c0 44be bcf6 f2bb 40d3 4fbd 30d9 9d3d
000000e0: 1bd7 cdbd cb94 9a3e 24e5 223f 1d2c 823b
000000f0: a7f2 c33d 53dc d73c 5abf b63d b302 75bd
00000100: a272 fc3d e8ff 3fbe df20 4a3e 1cba 753e
00000110: 5eb6 333e 5f24 a0be 89b9 373e cdc9 b7be
00000120: 586a 993e b6eb 9abd b787 94be 3998 23be
00000130: ca2c 783d 6c63 1ebe 5e86 ad39 75e0 25bc
00000140: 2339 77be 4a37 07be e168 dbbc 72b9 de3c
00000150: 8279 4e3d fd10 f6bd 3e8e 9cbd ca63 2a3f
00000160: 39c7 fb3c d8f8 f2bd 38dd 4cbe 3d23 803d
00000170: bc74 5dbe c0c9 52be b396 f1bc d121 483e
00000180: 8ba3 25be 36a0 23bb 41a4 d83d c32b 583e
00000190: 481b be3d 3fc1 96be ce57 6bbe 6ef6 0fbd
000001a0: 2417 da3e b29a 7fbd 8afc 1a3e dd61 683e
000001b0: 9fdc c53d 2e5f 073e c690 cebe 0162 f53d
000001c0: 4aaf f5bd d383 bb3e 31c9 80be bc61 173c
000001d0: 2c81 b53e 34a2 38be 1109 953c 9ee5 293e
000001e0: 81c5 f1bd 9daa 913b 0167 16be b123 503e
000001f0: 095c bbbe bf25 2ebe bbac 2bbe 41e2 d2be
00000200: e6a4 bb3e b585 afbd ace8 063e ebe5 cb3c
00000210: fc2d e93e 53a9 183d eabd bf3d b9af 51bd
00000220: 11eb 063d b710 a6bd 3a24 903e 55c0 a8be
00000230: 602b 273d c3a4 9dbe cf60 4c3e 50e2 95be
00000240: e285 b7be 7fe5 283e 19db 1cbe d3c3 123e
00000250: f036 56bd a58d f0bd 5f79 dfbd 1c37 12be
00000260: 350b b1be b52a efbd dfb0 cabd db25 68be
00000270: ff28 acbe cb8b 003c cdb7 8abe 1933 27be
00000280: b5ad b1bc dc8a 3fbd 085e 4bbe 3f71 6f3e
00000290: 3b46 7e3d ab17 44be b2d0 7abd b84e 813d
000002a0: 42a4 06be 2343 d13d e754 883d 8694 f63d
000002b0: ec7e 97be 8307 e1bb dd97 263d 5dc9 debd
000002c0: 6f02 94be 2a08 6ebe 914d 84be fb2e 90be
000002d0: f31a 50bd 4496 8e3e 7e25 a5bd 92c1 50be
000002e0: a99e 7c3e 3005 78be 5fe6 12bd 4e22 a13e
000002f0: 5753 7bbe 3330 8dbe e949 bf3e 95f2 a4be
00000300: 3767 dabd a1f4 ffbd 7f2c e2bd cd22 693d
00000310: 952e dc3b e352 60be 2b8a 133e ddb5 823d
00000320: 502e 97bd 9704 c7bd 198b fd3e 0658 acbe
00000330: 8c15 98be 70b8 38be e3db f33a 35b9 94be
00000340: 191a 583e fd5d b63e 88bc 993e a135 8cbe
00000350: 45f8 aabe e657 89be 652f b7be b102 5f3e
00000360: 66c0 c93e 6365 88bd 5e8b 6abd 386e 84bd
00000370: f8c7 47bc af76 bcbd f291 a6be e328 d83e
00000380: a27e 27bd 628b 303e 9897 f0bd 1ae1 81be
00000390: adde e1bd 4555 99bd 7a61 11be c683 6cbe
000003a0: f6a4 8bbe 812c a6be 9849 f73b 7670 6dbe
000003b0: 5dad 11be 92d6 663b c232 093f d2cb d7bd
000003c0: 2416 11be aa27 febd 1901 af3d f517 5fbe
000003d0: 3a56 653b be01 1abe 5158 ecbe 1b48 3cbe
000003e0: b9ba 43ba b0dc 39be 804a 91be 246d 0b3e
000003f0: e142 c53d 6fe7 5fbe 0c94 253d 2d22 36be
-0.19801933 -0.049512073 0.22777027 0.56290543 0.30178916 0.3257646 -0.14086121 -0.030677903
0.14459564 -0.30949578 -0.054535273 0.50133336 -0.113388084 -0.16423361 0.07208325 -0.22553147
0.18242481 -0.18209119 0.27310976 0.4140395 -0.28640774 -0.1928124 -0.04525222 0.3714746
-0.03984342 -0.041895416 -0.40943435 -0.07555389 -0.20222874 0.20293707 -0.14150068 0.107707985
-0.13181207 0.20173673 -0.061194513 0.0937713 0.33032954 0.023378676 0.008602454 0.22548993
-0.06728147 -0.070095114 -0.1339 0.66845345 -0.18367323 0.09057641 0.034406144 0.015931902
-0.2505222 -0.16820025 0.072446465 -0.18633117 -0.19214 -0.007414667 -0.050738573 0.07707441
-0.10050794 0.30191645 0.6363089 0.003972544 0.09567767 0.026350176 0.08923216 -0.059817027
0.12326552 -0.18749964 0.19739102 0.23996776 0.17550036 -0.3127775 0.1794187 -0.3589615
0.29963946 -0.075644895 -0.29009792 -0.15976037 0.06058959 -0.15467614 0.00033097243 -0.0101243155
-0.2414289 -0.13204685 -0.026783409 0.027188037 0.050408848 -0.12014959 -0.07644318 0.66558516
0.030734645 -0.118638694 -0.20006263 0.06256721 -0.21626562 -0.20584774 -0.029490804 0.1954415
-0.16175668 -0.002496732 0.10578204 0.21110444 0.09282547 -0.2944431 -0.22982714 -0.035147123
0.4259578 -0.06240339 0.15135399 0.22693582 0.09661221 0.13219902 -0.40344828 0.119815834
-0.11996324 0.3662401 -0.25153497 0.00923961 0.35450113 -0.18030626 0.0181928 0.16591498
-0.11805249 0.0044453875 -0.1468773 0.20326115 -0.36593655 -0.17006586 -0.1676511 -0.41188243
0.36649245 -0.085704245 0.13174695 0.024889907 0.45542896 0.037270855 0.09362395 -0.051192973
0.03293902 -0.08108657 0.2815264 -0.32959238 0.04081285 -0.30789766 0.19958805 -0.29274225
-0.35844332 0.16493796 -0.15317954 0.14332514 -0.052298486 -0.117457666 -0.109118216 -0.14278835
-0.34578863 -0.116780676 -0.09897017 -0.2267069 -0.33625028 0.007845829 -0.27093354 -0.16328086
-0.021689275 -0.046763286 -0.19860089 0.23383044 0.062078696 -0.19149654 -0.061234184 0.063138425
-0.13148597 0.102178834 0.06656819 0.12040047 -0.2958902 -0.0068673505 0.04067217 -0.10878251
-0.28908107 -0.23245302 -0.25840428 -0.28160843 -0.05080695 0.2784902 -0.08063792 -0.20386341
0.24669899 -0.24220729 -0.03586423 0.31471485 -0.2454351 -0.27575836 0.37361076 -0.32216325
-0.10664218 -0.12497831 -0.11043643 0.056917954 0.00671942 -0.21906619 0.14408176 0.06382344
-0.0738188 -0.09717672 0.49520186 -0.33660907 -0.2970394 -0.18039107 0.001860496 -0.29047552
0.21103705 0.35618582 0.3002665 -0.27384666 -0.3339254 -0.26824874 -0.35778347 0.2177837
0.394046 -0.06659963 -0.057261817 -0.06466335 -0.012193672 -0.092023246 -0.32533222 0.42218694
-0.04089225 0.1724067 -0.11747664 -0.2536705 -0.110288 -0.07486967 -0.1419734 -0.23097143
-0.27274293 -0.3245583 0.007546615 -0.23187432 -0.14226289 0.0035223109 0.53593075 -0.105369225
-0.14168602 -0.12409909 0.08545131 -0.21786483 0.0034994022 -0.15039727 -0.4616113 -0.18386881
-0.00074664835 -0.18150592 -0.2837715 0.13615853 0.09631897 -0.21865629 0.04042439 -0.17786475

linear2.weight f4 [3, 256]
00000000: a430 85be 8ae0 da3e 7162 0a3e 9d1d a73e
00000010: 98f6 a03e bff2 073e a3fe 98bd 569c 8e3e
00000020: dc49 0ebf eb99 91be 7ec1 64be 413a fc3e
00000030: 3225 ccbd fac5 103c 7796 123e aed1 a6bc
00000040: 96be bfb9 ec0c 70be 5fcd 263e c718 553e
00000050: 0918 b4be c208 d1be e51f a43e 410f 273e
00000060: c4bd aabe ddae cebd 34c7 3abe cdc6 42bb
00000070: bff3 ae3e ba7b 513e 3621 d9be d5ba f23e
00000080: 94db 2ebe 69d2 f33d ce60 9ebc 023a c83e
00000090: 609b 583e 2d68 883e 2479 bc3b de2b 603e
000000a0: 34cb e9bc f768 a9be 5d4e 073e b22d 813e
000000b0: d8e5 89bd 68a4 ec3c 739f 93be d641 50be
000000c0: 6324 13bd d86e dfbd e14f 303e d290 87be
000000d0: 1ea3 87bd a0a7 ca3e d9b5 c53e 3926 cc3e
000000e0: ab76 cd3c 811a 063e cb58 b43e 3b97 ac3e
000000f0: e897 d53c d514 cd3e 53f9 b63c a264 8c3e
00000100: 0e9b c03e 64a0 82bd 924c 2fbe b576 3c3e
00000110: 6328 b03e f0e9 9c3c 5a4d bf3e 774d 13bd
00000120: 3a81 933e 71d9 e2bd 52ac 89bd 1b54 d5bd
00000130: d6ad 963e f018 5bbd ed79 a03c 30d2 7ebd
00000140: 1130 2ebe 0305 e73b 547e 703c 08c6 2cbe
00000150: 11ac 63bf db9f 05bd d879 9ebe 6783 de3e
00000160: 0ffa 863e 97c0 76be c16a 5abe 140d bb3e
00000170: fe9e babe afe3 66be c92b 78bc 0e3d 2b3e
00000180: a1c7 0ebe d2bc 0bbf 2d5a ddbc 8449 903e
00000190: 441e 51be 6867 1f3d 0cb7 23bd 43d3 07be
000001a0: 0b2f 503e 987a 743e 8627 d03c 45fe b93d
000001b0: e326 9a3c 7dd1 4b3e a747 4cbe ae83 833e
000001c0: e21a 37be e6cb 573e 8975 2fbe bf67 18be
000001d0: 388a be3e 251b 0fbf 4bd7 9a3d 7b5c d03e
000001e0: fc2d 72bd 32b0 92be a525 adbe dd5f bf3e
000001f0: bdb6 fcbe 27eb d1be 3541 f0bd f9ec 903a
00000200: 89aa 893e 52b5 16be 2b2c 9f3e bfc1 b83e
00000210: d3b0 b43e 800f 34bf 5956 2dbd 0872 153c
00000220: c49b 21be 4f98 0bbf 38c4 8a3e a5fb aebc
00000230: 32c5 803e a798 b63c 139e ec3d 01a5 19be
00000240: df6d f3bd 48c9 873d 0c55 d0be 39c8 7e3d
00000250: 4415 a4be 2c63 2d3e 9e59 49bd 9a6e a8be
00000260: a9c5 88be 92a0 48be c7de 41be cca4 b23d
00000270: 9ed6 18be ccc9 d7be 3439 01be 1f23 08bc
00000280: e8d8 623e 42a5 1cbf 766b 11bf c13f 973e
00000290: b228 233f 12a0 0ebe 40d4 87bd 2102 73bd
000002a0: 8f4b 26be ab26 4bbb 4f7e ae3d 58de a53d
000002b0: c2fb 8ebe 5a11 7abe 62b4 743e 4377 17be
000002c0: 2686 243c e0ce 49bd 7cdb 303d d4bc 67bb
000002d0: 0726 f7bc 1dbc a23e c738 a23e d30f ffbd
000002e0: 0e39 693e 7543 66be 9769 193e 8121 1e3e
000002f0: be52 0dbe ee39 47be 3695 bc3e 316a ca3b
00000300: 134f a3be 0158 543e 6af9 393e c894 da3b
00000310: 1f33 98be 9c08 7ebd 3397 85be daa5 9d3b
00000320: 5abe 193e d1f2 a33e 8fca 303e a72f 71be
00000330: 05e5 40be 45d4 55be 97cf 03bf f891 9dbe
00000340: 91f0 c33d b623 3c3e 5c74 953e 3e1e 9bbe
00000350: fa29 4bbe 6d9d 03be 973f 65be f87d c83c
00000360: 453d 583e effb abbe 0a52 c93d d7b7 d33e
00000370: 98ec e3be ad23 73be f8fd adbd c92e 673e
00000380: a899 24bc e0ca df3e eaa7 b2bd 3d15 04bf
00000390: 2f05 d6be 66e9 ecbd 93f2 2ebd f807 66be
000003a0: b019 bbbb 2296 9abd 5594 f1be d592 a2be
000003b0: d66d d4bd 7e67 c1be 54dd d63e b25a edbc
000003c0: 1692 893e 566d 08bf bdcb 2e3e 5325 80bd
000003d0: 306e a8bc 252b 3ebe 3dd3 6fbe f3a7 f1bd
000003e0: 4c88 8c3e c50a fabd ee8a a9bd 3914 bfbe
000003f0: 6df8 fd3c f063 cdbd 903b 113e e3ef 1a3e
-0.26013672 0.42749435 0.13514115 0.3263978 0.31438136 0.13276194 -0.07470443 0.2785365
-0.5558145 -0.28437743 -0.22339436 0.49263194 -0.09968032 0.008836264 0.1431521 -0.020363655
-0.00036572356 -0.2344243 0.1628928 0.20810233 -0.35174587 -0.40826994 0.32055584 0.16314413
-0.33347905 -0.10091946 -0.18240052 -0.0029720545 0.3417034 0.20457354 -0.4240815 0.47408167
-0.1707595 0.11905367 -0.01933327 0.39106756 0.21153021 0.2664198 0.005751746 0.21891734
-0.028539278 -0.33087894 0.13213487 0.25230175 -0.06733292 0.028886989 -0.28832588 -0.20337614
-0.035923373 -0.10909814 0.17217971 -0.26477677 -0.06622909 0.39581013 0.386153 0.39872912
0.025081 0.13096048 0.35223994 0.3370913 0.026073411 0.40054956 0.022335684 0.27420527
0.37618297 -0.06378248 -0.17119053 0.18404658 0.34405813 0.019154519 0.37363702 -0.035962548
0.2880953 -0.1107663 -0.067223206 -0.104164325 0.294295 -0.05349058 0.019589389 -0.06221217
-0.17010523 0.007050158 0.0146785565 -0.16872418 -0.8893443 -0.032623153 -0.30952334 0.43459627
0.26362655 -0.24096905 -0.21329786 0.36533415 -0.36449426 -0.22547792 -0.015147158 0.1672251
-0.1394334 -0.5458499 -0.027020538 0.28181088 -0.20421702 0.038916975 -0.03996949 -0.13264184
0.20330445 0.23874891 0.025409471 0.09081701 0.01881737 0.19904132 -0.19949208 0.256864
-0.17881349 0.21073875 -0.1713468 -0.14883326 0.37214828 -0.55900794 0.07560595 0.40695557
-0.059125885 -0.2865005 -0.33817783 0.37377825 -0.49358168 -0.4099972 -0.11731187 0.0011056951
0.2688792 -0.14717606 0.31088385 0.36085317 0.35291156 -0.7033615 -0.042318676 0.009121425
-0.15782076 -0.5452928 0.27102828 -0.021360228 0.25150448 0.022289587 0.11553588 -0.1500435
-0.118861906 0.06630188 -0.40689886 0.062202666 -0.32047474 0.16932362 -0.04915773 -0.32896882
-0.26713303 -0.19592503 -0.18932639 0.08722839 -0.1492562 -0.42146146 -0.12619478 -0.008309155
0.22153056 -0.61189663 -0.568046 0.29540828 0.6373397 -0.1392825 -0.0663228 -0.059328202
-0.16239761 -0.003099839 0.08520185 0.08099049 -0.2792645 -0.24420682 0.23896936 -0.14791588
0.010041749 -0.049269557 0.043178067 -0.0035360353 -0.0301695 0.31784144 0.31683943 -0.1245419
0.22775671 -0.2248667 0.14981686 0.15442468 -0.13801095 -0.19455692 0.3683259 0.00617721
-0.31896266 0.20736696 0.1816155 0.006670568 -0.29726502 -0.06201993 -0.26091918 0.004811031
0.1501402 0.32021192 0.1726477 -0.23553334 -0.18837364 -0.20881756 -0.5148863 -0.30775428
0.09567369 0.18372998 0.29190338 -0.3029651 -0.19840232 -0.12853022 -0.22387539 0.02447413
0.21117122 -0.33590648 0.09830101 0.41351196 -0.44516444 -0.23744078 -0.08495706 0.22576441
-0.0100464 0.4370947 -0.08723433 -0.5159491 -0.4180083 -0.11567955 -0.042711806 -0.22463977
-0.0057098493 -0.07548167 -0.4718348 -0.3175265 -0.10372512 -0.3777427 0.41965735 -0.028973911
0.26869267 -0.53291833 0.17069907 -0.06257119 -0.020560354 -0.18571146 -0.23420425 -0.11799612
0.27447736 -0.122090854 -0.08278452 -0.37320116 0.031002248 -0.10028827 0.14182878 0.15130572

linear2.bias f4 [3]
00000000: f43d 223e 5e50 acbb ae76 053d
0.15843946 -0.005258604 0.032583885
